seq-aap.model (torch_old, 845 bytes, 4 tensors)

lstm.weight_ih_l0 f4 [8, 4]
0.5058587 0.70531565 0.23128098 0.45031363 -0.23825741 0.131132 0.027918907 0.6526348
-0.4705614 -0.34444788 0.1392827 0.49274343 -0.5946454 0.58816546 0.44763058 0.36110932
-0.13825858 -0.5665216 -0.31146142 -0.19203252 -0.2146726 0.5649466 0.27005273 -0.5840275
-0.2221578 -0.4146639 -0.5080318 -0.28124753 0.21872628 -0.06557227 -0.5779935 -0.5956974
00000000: f57f 013f 918f 343f ecd4 6c3e 828f e63e
00000010: c0f9 73be 7847 063e 31b6 e43c 1313 273f
00000020: 6ced f0be 795b b0be 20a0 0e3e de48 fc3e
00000030: ae3a 18bf 0392 163f d62f e53e 52e3 b83e
00000040: a893 0dbe 8f07 11bf df77 9fbe 2ca4 44be
00000050: 22d3 5bbe 57a0 103f 5a44 8a3e d482 15bf
00000060: 567d 63be d44e d4be 5f0e 02bf adff 8fbe
00000070: c8f9 5f3e c14a 86bd 62f7 13bf a07f 18bf

lstm.weight_hh_l0 f4 [8, 2]
-0.45369875 -0.056690812 -0.19848788 -0.38849464 0.07863128 -0.7025378 -0.114405155 0.393619
-0.13194662 -0.62719 0.6987671 -0.5713562 0.44568604 0.65440255 0.34307092 -0.31176934
00000000: 344b e8be a034 68bd 6840 4bbe c5e8 c6be
00000010: 7009 a13d 84d9 33bf 404d eabd 6e88 c93e
00000020: 041d 07be 868f 20bf 67e2 323f 6644 12bf
00000030: f630 e43e ed86 273f fea6 af3e 3ba0 9fbe

lstm.bias_ih_l0 f4 [8]
-0.30371583 -0.46992707 -0.70425737 0.2708432 -0.10050422 0.6728799 -0.5418698 0.43089497
00000000: a480 9bbe 489a f0be 364a 34bf f6ab 8a3e
00000010: 28d5 cdbd db41 2c3f fbb7 0abf 449e dc3e

lstm.bias_hh_l0 f4 [8]
-0.59356457 -0.4681989 -0.17466784 0.44059354 0.22618693 -0.5452496 -0.34719652 -0.09524244
00000000: d9f3 17bf c4b7 efbe 20dc 32be 7a95 e13e
00000010: 8c9d 673e 7a95 0bbf bec3 b1be 780e c3bd
