seq-linear-2-aap.model (torch_old, 2095 bytes, 14 tensors)

lstm.weight_ih_l0 f4 [8, 4]
000000 d8 ad 12 3e 6e 1c 86 be e5 1a 1f 3f 96 c1 1d bf
       0.14324129 -0.26193565 0.6215041 -0.61623514
000010 86 0f ac 3e 92 6e e7 3e 15 67 1c bf dc 70 50 be
       0.33605593 0.45201546 -0.6109479 -0.20355552
000020 fc c2 ff be a0 72 f3 be 10 90 38 3e e4 8b 53 be
       -0.4995345 -0.4754839 0.18023705 -0.20658833
000030 84 53 26 be f0 3d 03 bf b0 64 e1 be 3e 83 dd 3e
       -0.16242796 -0.51266384 -0.4402213 0.43264192
000040 7a 40 be 3e 86 f4 9b 3e 28 64 05 be 10 e6 27 3e
       0.37158567 0.30459994 -0.13026488 0.16396356
000050 10 5b f0 bd 32 04 ca 3e be 8b b3 3e 9e c8 70 be
       -0.11736119 0.39456326 0.35067552 -0.2351403
000060 06 88 fb be 00 2d 7b 3c ba 0d 8a 3e da cd 99 3e
       -0.49127215 0.015330553 0.26963598 0.30039865
000070 61 71 0e 3f 21 c3 08 3f ac 1e 8d be 72 ca bc 3e
       0.5564175 0.53422743 -0.27562463 0.36873204

lstm.weight_hh_l0 f4 [8, 2]
000000 60 5d 8c 3e 2b 8f 1a 3f cd 86 2d bf ce ef 7f be
       0.2741499 0.60374707 -0.67783815 -0.24993822
000010 12 5e 82 3e 5e 96 f3 be 12 b0 c7 3e 07 d1 20 3f
       0.25462395 -0.4757566 0.39001518 0.6281895
000020 8e e9 06 bf 6e ec fd 3e c0 ae b7 bc 32 5c b3 3e
       -0.52700126 0.49594444 -0.022422194 0.35031277
000030 0f 52 a6 be 15 06 12 3f 86 67 9a be e3 de da be
       -0.3248448 0.5704053 -0.30157107 -0.42748174

lstm.bias_ih_l0 f4 [8]
000000 90 43 09 3d 08 57 a8 bd d3 12 b1 be dc ea 48 be
       0.0335117 -0.08219725 -0.34584674 -0.19620842
000010 58 ef f6 be c0 f5 8b 3c 00 1a 68 bd 72 16 28 bf
       -0.4822948 0.017084956 -0.05666542 -0.6565925

lstm.bias_hh_l0 f4 [8]
000000 ae 87 7c be 1c 09 31 bf 50 eb e7 be 73 dd c3 be
       -0.24661133 -0.69154525 -0.45296717 -0.3825489
000010 a7 87 21 bf bb f1 25 bf 79 0d 11 3f 9f b5 14 3f
       -0.63097614 -0.64821976 0.5666118 0.5808963

lstm2.weight_ih_l0 f4 [8, 2]
000000 40 48 60 bd ba 8e e6 3e f1 ec 00 3f 6d 6d 1a 3f
       -0.054756403 0.45030767 0.50361544 0.6032322
000010 fb 05 c5 be c2 27 da 3e 98 70 6e be ec 2d 8c be
       -0.38481125 0.42608458 -0.23285139 -0.27378786
000020 73 f8 db be c8 37 b6 3d 6c 94 58 3e 00 bf 2a bb
       -0.4296299 0.08897358 0.21150368 -0.0026053786
000030 b1 78 29 3f c0 f7 08 3e 92 bf f4 3e 88 a9 99 bd
       0.66199785 0.13375759 0.47802407 -0.07503039

lstm2.weight_hh_l0 f4 [8, 2]
000000 c1 9b 0a 3f 80 1d a0 bb bb 04 c3 be 93 ba 2d bf
       0.5414391 -0.004886329 -0.38089547 -0.67862815
000010 e4 4c 51 be 79 b2 2e 3f 82 b4 ed 3e 49 35 33 bf
       -0.20439488 0.6824108 0.4642678 -0.7000318
000020 ba 68 c1 3e 08 79 8d bd 74 5d 05 bf 9e 7e b5 be
       0.37775213 -0.069078505 -0.52095723 -0.35448164
000030 e0 7f 91 be a3 07 15 bf f3 a2 27 bf 00 4f bc 3d
       -0.28417873 -0.5821478 -0.65483016 0.091947556

lstm2.bias_ih_l0 f4 [8]
000000 57 98 e9 be c3 d2 30 3f bb 78 23 3f 56 6f da 3e
       -0.4562404 0.69071597 0.63856095 0.42663068
000010 10 50 19 3d a0 73 20 3d 02 7f de 3e b6 80 af 3e
       0.03742987 0.03917277 0.43456274 0.34277886

lstm2.bias_hh_l0 f4 [8]
000000 1b b1 34 3f 88 91 b5 3d 80 be 04 3c 08 e4 6d 3e
       0.7058274 0.088656485 0.008102059 0.23231518
000010 34 9d 12 be 00 16 46 bd ce 7c 32 bf 46 5f f4 3e
       -0.1431778 -0.048360825 -0.69721687 0.47728938

linear.weight f4 [4, 4]
000000 80 01 a4 bd a8 53 c0 3e f8 2e f2 3d f4 29 4a be
       -0.080080986 0.37563825 0.11825365 -0.19742566
000010 90 42 d3 3e 90 94 c6 3d b0 bb 04 bd aa a9 87 3e
       0.4126172 0.09696305 -0.032405555 0.2649663
000020 e8 30 c4 3d 08 06 a7 3d b0 e3 ed 3e 98 35 c8 be
       0.095796406 0.08155447 0.46462774 -0.3910339
000030 44 76 e0 be f0 34 34 be 38 5a 2d be d0 70 f6 3d
       -0.4384023 -0.17598319 -0.16928947 0.12033236

linear.bias f4 [4]
000000 ac d4 37 3e d8 1a 7c be 9e 93 b8 be 16 55 94 3e
       0.17952222 -0.24619615 -0.36050123 0.28971165

linear2.weight f4 [4, 4]
000000 76 9d f6 3e 70 19 b3 3d 04 28 77 be bc 85 2f 3e
       0.48167008 0.08745086 -0.24136358 0.1714086
000010 88 31 a8 bd fa 30 c1 3e a2 0e f1 be 86 d1 c6 be
       -0.08212572 0.3773268 -0.47081476 -0.3883173
000020 e0 e2 23 3e d8 7d 31 3e 30 39 5e bd 80 45 39 be
       0.16004515 0.17333162 -0.054253757 -0.18092918
000030 8e a2 f8 be 18 e0 f3 3d 0c 3a 4c be 88 fa 9e be
       -0.4856152 0.11907977 -0.19944018 -0.31050515

linear2.bias f4 [4]
000000 e0 3d e2 bc 34 31 c0 be c8 8f 13 be c0 61 dc bd
       -0.027617395 -0.3753754 -0.14410317 -0.10760832

linear3.weight f4 [2, 2]
000000 00 21 07 bd 60 22 97 be 00 d8 50 bb 61 3a 1d 3f
       -0.032990456 -0.29518414 -0.0031867027 0.61417204

linear3.bias f4 [2]
000000 d4 56 6d 3e 52 f6 bf 3e
       0.23177654 0.37492615
