seq-linear-2-aap.model (torch_old, 1899 bytes, 12 tensors)

lstm.weight_ih_l0 f4 [8, 4]
00000000: 7425 f53e e002 a23e 775b b2be 39d1 00be
00000010: 2730 8ebe 9e95 f03e 1ecd bdbe 45a8 5cbe
00000020: 9f51 2b3f c5b1 583e 64b4 b7be 8c70 eb3d
00000030: e103 a33e bf14 f8be a13f 0ebe 1fb8 f4be
00000040: 68f9 29be 1ab1 18bf 36b7 1bbf c99e d5be
00000050: 9b0f a33e ee45 e5be 6192 17bf 5f44 26bd
00000060: f680 febe 745d 503d ecb3 d9bd 0459 83be
00000070: 8c6d 4ebe 3480 433d 49cb 05be 5247 cd3d
0.47880137 0.31642818 -0.34835407 -0.12579812 -0.27771112 0.4698915 -0.37070554 -0.21548565
0.6692142 0.21161564 -0.35879815 0.11496076 0.31838897 -0.48453328 -0.1389146 -0.47796723
-0.16599047 -0.59645236 -0.6082643 -0.41722706 0.31847844 -0.44779915 -0.5920773 -0.040592548
-0.49707764 0.050870374 -0.106300205 -0.2565385 -0.20158976 0.047729686 -0.13065828 0.10023369

lstm.weight_hh_l0 f4 [8, 2]
00000000: 3fda 0c3f ab2b 02be ba1c 04bf 74f8 d4be
00000010: 39ae b13e a7a4 1b3f 2a68 053e baeb 32bd
00000020: 3150 ee3c 0f93 133f 6dee a63d 2bcc ecbe
00000030: 337d 893e b503 613f a939 83be 1638 43be
0.5502052 -0.1271197 -0.51606333 -0.41595805 0.34703234 0.60798115 0.13028017 -0.043681838
0.029090973 0.5764627 0.08150945 -0.46249518 0.26853332 0.8789628 -0.2562993 -0.19064364

lstm.bias_ih_l0 f4 [8]
00000000: b5e8 7b3d d81c 11bf ce7f 6abe 925a 31bf
00000010: 2aeb f4be 2519 10bd 19a2 9e3d b35f 7d3e
0.061501224 -0.5668464 -0.22900316 -0.69278824 -0.47835666 -0.03518023 0.077457614 0.24743538

lstm.bias_hh_l0 f4 [8]
00000000: 1648 18be 75b4 fb3e 6ecd 043f 18d1 223e
00000010: 8356 563e 2c53 fc3e 95df e6bd c47e cdbe
-0.14871249 0.49161115 0.5187596 0.15900075 0.20931439 0.49282205 -0.11273114 -0.40135777

lstm2.weight_ih_l0 f4 [8, 2]
00000000: 84e0 013f 5c65 aabe de8e e73e 2a3e 3c3f
00000010: 9c3c abbd d384 7e3e f434 383f 6bbc acbe
00000020: 7b09 273f f268 3c3f 9593 07bf 4971 04bf
00000030: 13c2 873e 5455 5c3b 0de6 7e3f fdae 87be
0.5073321 -0.33280456 0.45226187 0.73532355 -0.0836117 0.24855356 0.719558 -0.33737502
0.6524884 0.73597634 -0.5295957 -0.5173536 0.26515254 0.0033620195 0.9956978 -0.26500693

lstm2.weight_hh_l0 f4 [8, 2]
00000000: 1f23 653c bc00 af3e 76b2 f5be 53a3 713e
00000010: 52e6 543e 8e56 c7be e5e5 e5bc cbe8 4ebf
00000020: 08ff 2d3f 6e2e aabd 26c2 ee3b f6be 1c3e
00000030: 1304 cd3e 9c5b ddbc 2dfc f9be 1e42 d83e
0.013985424 0.34180248 -0.47987717 0.2359746 0.20790985 -0.38933223 -0.028063724 -0.80823964
0.6796727 -0.08309637 0.007286328 0.15307221 0.4004217 -0.027021222 -0.48825207 0.42237943

lstm2.bias_ih_l0 f4 [8]
00000000: d3a6 f23e 62da 5e3e 216d 73bd 45d6 0e3e
00000010: 681a e8be 2409 b0be a999 f83d 1ca9 133f
0.47392902 0.21762994 -0.059430245 0.13948925 -0.45332646 -0.34381974 0.12138683 0.57679915

lstm2.bias_hh_l0 f4 [8]
00000000: ce7b 1d3f ff14 023c 780d 963d 591e 9b3d
00000010: feb6 bdba 2984 16bf 629a 76be cc25 56be
0.61517036 0.007939576 0.07326788 0.07574148 -0.0014474092 -0.5879541 -0.2408233 -0.20912856

linear.weight f4 [4, 4]
00000000: f7c0 96be 7f69 dfbe bdbd a9be f313 cdbe
00000010: 46eb db3e de14 fc3e 3809 023f a86a d8be
00000020: 31a7 ae3e e74e 88be 17e9 91be 67f9 503e
00000030: 651b 79be 4729 b8be 6dfb 093d 18e4 f3be
-0.29444095 -0.43635175 -0.3315257 -0.40054283 0.42952937 0.4923467 0.50795317 -0.42268872
0.34111932 -0.26622698 -0.28498146 0.2040764 -0.24326856 -0.35968992 0.033687044 -0.4763496

linear.bias f4 [4]
00000000: 5795 543d 0f51 da3d 84a4 3cbe 5bfb f7be
0.051900234 0.10659992 -0.18422133 -0.48433957

linear2.weight f4 [4, 4]
00000000: c822 f53d e60c f6be 220f f2be a01b d63e
00000010: b814 26be e4d8 22be 5836 adbd 90b2 41bd
00000020: b2c5 80be d48a c73e 5879 8cbe 6cae 583e
00000030: 62fb cdbe 6a06 86be f0ca 2bbd 709e 6b3d
0.119695246 -0.48056716 -0.4727717 0.4181795 -0.16218841 -0.1590305 -0.08457631 -0.04728943
-0.2515083 0.38973105 -0.27436328 0.21160287 -0.40230852 -0.2617677 -0.041941583 0.057524145

linear2.bias f4 [4]
00000000: 103e eabe 44eb f13e 8089 9cbe 6e7f 923e
-0.45750475 0.47249806 -0.30573654 0.28612846
