seq.model (torch_old, 1358 bytes, 4 tensors)

lstm.weight_ih_l0 f4 [8, 20]
00000000: 00a0 8d3e f7f6 213f dc12 c3be 068d 12be
00000010: 3bf9 f93e ecaf 1a3f 2727 8fbe f89a f0be
00000020: 180d 8e3e dad2 043e 34a0 55bd bd75 233d
00000030: c735 f33e c40c 2a3f 95a5 a53d fef4 6a3e
00000040: 486f babe 2cd7 b5bc bd93 bf3e 8cf4 9a3e
00000050: 464e a13e 7607 f2be b8ff 97be 871b 213f
00000060: a093 643c c1a4 673f 4689 9b3e aaf9 4fbe
00000070: 24cd fb3e 3eca 3c3f 8146 423f 0331 043e
00000080: eca2 083f 5537 21be 9fd1 fc3e 59d1 053f
00000090: 3c44 1e3f 4fe4 94bc 39ec c83d ecb5 a73e
000000a0: fc29 d63e 1dc5 c93e f5a7 483f b424 293e
000000b0: 46f5 ad3e aa1b f6bd 8161 b5be f41d fa3e
000000c0: e3fb f3bd a6e6 223f 843e f53e d307 cabb
000000d0: be9f 93be dfa4 a7be c366 383f 9276 cfbe
000000e0: 0000 e3be 8b1f 073f 57a6 653e 7882 5d3f
000000f0: 1201 473f b44a 04be bb52 283f 66cd 143f
00000100: 9c44 2d3e ce5e 013e 8c72 733f 4d50 6d3f
00000110: 8d44 0e3f 6671 fc3d d2a3 0c3e fa3a 4b3e
00000120: f32a bfbc 2631 203f ca44 363e f409 bfbe
00000130: 3c45 663f 146f c9be c8c0 2c3f c060 513f
00000140: 74c5 1e3f a484 3e3f 81b3 583f 1369 563e
00000150: 2a9f ab3e 4961 253f 22bf 603e 948e 733e
00000160: 308b 953e a1d4 25be a8cc 87be 81bc 5b3e
00000170: 5741 433f 17c8 0d3f e432 073f 6ab1 f13e
00000180: 1c31 4b3e 8e40 a5bc b93e 3fbe d3fc c63e
00000190: 05e8 d33c 564f c4be 1964 a33a 19a3 c2bd
000001a0: d721 43be 9792 6b3e 5feb 1cbf 7203 093d
000001b0: 8255 51bf d8e7 ba3e f45c 993d e4de 54bf
000001c0: c58f a23e 9cfa 21bf 54fa e03e 21f6 813e
000001d0: b635 1d3e 815b dc3e 2625 e6bd 28bb c8bd
000001e0: d714 6a3f b60d 8d3f b3bf 11bc bdad 813f
000001f0: 6eb2 463c bc89 d33e b378 173f b75c 9b3e
00000200: c119 1c3e 64ef ad3e 86b3 cf3e 208b ee3d
00000210: 2985 6bbd 9bbc aa3e 05b4 2e3f 408a 673f
00000220: 1871 063e 2387 563e 76bb 28be 7927 2a3e
00000230: 0ce8 c93e 4edb 1fbe eee5 6d3f d194 a0bc
00000240: dfdf 853e 01aa 263f eada c5bc 8ec0 c6bd
00000250: 4813 5e3d 4e9e b13e 44fd b13d e322 f73e
00000260: 8962 f13e 99f7 833f 29fa 4a3f 9c2c 2d3f
00000270: f602 683f 82aa 723f 7d4e 943e e2f2 473f
0.27661133 0.63267463 -0.38100326 -0.14311609 0.4882296 0.60424685 -0.27959558 -0.46993232
0.27744365 0.12971058 -0.052154735 0.039907206 0.47501966 0.6642573 0.08088223 0.2294502
-0.36413026 -0.022197329 0.37417403 0.302647 0.3150503 -0.47271317 -0.29687285 0.6293263
0.013951212 0.9048577 0.3037817 -0.20310083 0.49179947 0.737461 0.7588883 0.12909321
0.533736 -0.15743764 0.49378678 0.52272564 0.6182287 -0.018175272 0.09810681 0.32755983
0.41828907 0.39408198 0.7838128 0.16517907 0.3397619 -0.12016995 -0.35425952 0.48850977
-0.11913278 0.6363319 0.47899258 -0.0061654835 -0.2883281 -0.32742974 0.720318 -0.4052015
-0.44335938 0.52782506 0.22426735 0.86527205 0.7773601 -0.12919122 0.65751237 0.58125913
0.16920704 0.12633821 0.9509666 0.92700654 0.5557335 0.123263165 0.13734367 0.19846717
-0.02333591 0.62574995 0.17799678 -0.3731228 0.89949393 -0.39342558 0.6748166 0.81788254
0.6202004 0.74421144 0.846489 0.2093852 0.3351987 0.6460157 0.21947911 0.23784858
0.29207754 -0.16194393 -0.26523328 0.21458627 0.76271576 0.5538344 0.5281203 0.4720567
0.19842952 -0.020172384 -0.1867627 0.38864765 0.025867471 -0.3834178 0.0012465745 -0.09503765
-0.19055878 0.23005138 -0.6129665 0.03345055 -0.817711 0.36505008 0.074884325 -0.83152604
0.31750312 -0.63273025 0.43940985 0.25383094 0.1535252 0.43038562 -0.11237554 -0.09801322
0.9143805 1.1019809 -0.008895802 1.0131146 0.012127502 0.4131602 0.5916855 0.30344173
0.152442 0.33971703 0.40566653 0.1164763 -0.05750004 0.3334702 0.6824344 0.9044533
0.1312908 0.20949988 -0.1647776 0.1661662 0.3943485 -0.15611002 0.9292897 -0.019602211
0.26147363 0.65103155 -0.024152238 -0.09704696 0.054217607 0.3469109 0.08690885 0.48268804
0.4714549 1.0309936 0.79287964 0.67646194 0.9062952 0.94791424 0.28966132 0.78104985

lstm.weight_hh_l0 f4 [8, 2]
00000000: 79c7 563f 65c4 ddbe 179d 733e 1b46 8fbe
00000010: 7dbb 9f3e 94b3 a2be 0c76 0fbe 5d07 92be
00000020: dc11 1c3d 2017 4fbf 3e62 69bb 1134 2f3f
00000030: c01d e23d 315d 89bf 0979 803f c5df f93d
0.8389812 -0.433139 0.23790394 -0.27983174 0.3119773 -0.31777632 -0.14009875 -0.28521243
0.03810297 -0.8089466 -0.0035611535 0.6843882 0.110408306 -1.0731565 1.0036937 0.12200884

lstm.bias_ih_l0 f4 [8]
00000000: 2075 f1be 5269 5bbd 73ca 4e3f 24ec 763f
00000010: d039 b0be ffd3 8dbe 72f3 a73e b207 a4bd
-0.47159672 -0.05356724 0.80777663 0.9645407 -0.34419107 -0.27700803 0.32802922 -0.0800928

lstm.bias_hh_l0 f4 [8]
00000000: 2cef 7c3e e3d5 563f 6a87 e13e 4241 80bd
00000010: 28e3 b83e 71ed f3be c41c 303f 2d2b 663e
0.24700612 0.83920115 0.44048625 -0.06262447 0.36110806 -0.4764209 0.6879389 0.22477408
