seq.model (torch_old, 1358 bytes, 4 tensors)

lstm.weight_ih_l0 f4 [8, 20]
0	0xbf0b2728	-0.5435662
1	0xbf1331ca	-0.5749785
2	0x3eb1168f	0.34587523
3	0x3e821bfb	0.25411972
4	0xbefec6ad	-0.49760953
5	0xbf2a5e8a	-0.66550505
6	0xbd435311	-0.04768664
7	0x3e8ecb19	0.27889326
8	0xbe08b24e	-0.13349268
9	0x3eb7754c	0.35831678
10	0x3f32e8d0	0.69886494
11	0xbf1837c1	-0.59460074
12	0xbe146952	-0.14493302
13	0x3e32f307	0.1747552
14	0x3e104d41	0.1409197
15	0x3f1ec3d7	0.6201758
16	0x3d79cdce	0.060987286
17	0xbe0bc1f7	-0.1364821
18	0xbec9ac28	-0.39389157
19	0x3e48d5f7	0.19612871
20	0x3f22f6f5	0.63658077
21	0xbf03f033	-0.5153839
22	0xbdc33e9b	-0.095334254
23	0x3f2bbd68	0.67085886
24	0x3e851e4a	0.2599967
25	0x3f0647b0	0.52453136
26	0xbed8d3e4	-0.4234916
27	0x3eb82e74	0.3597294
28	0x3dc5f4cd	0.09665833
29	0xbe0a64a1	-0.1351495
30	0x3ebefd54	0.3730265
31	0xbebdd54e	-0.370768
32	0xbe2fc18b	-0.17163675
33	0xbe12fb4e	-0.14353678
34	0x3f15faa5	0.5858558
35	0x3d5e5df3	0.054288816
36	0xbe3b11d6	-0.18268523
37	0xbe2eff68	-0.17089617
38	0xbf067768	-0.5252595
39	0xbf1d680b	-0.6148688
40	0x3f0430dd	0.5163706
41	0xbe9ce788	-0.30645394
42	0xbf0f837d	-0.5606001
43	0xbee38a57	-0.44441482
44	0xbeebea78	-0.46077323
45	0x3ee0a531	0.4387603
46	0x3ec6627e	0.3874702
47	0x3f134c87	0.57538646
48	0xbf1ba788	-0.6080251
49	0x3ea6e3c1	0.32595637
50	0xbd8cd984	-0.06877425
51	0xbe46a234	-0.19397813
52	0xbeb777e0	-0.35833645
53	0xbec0d5c8	-0.37663102
54	0xbefc2055	-0.49243417
55	0xbe070023	-0.13183646
56	0x3c5c64ba	0.013451749
57	0xbf134e30	-0.5754118
58	0x3df19892	0.117966786
59	0x3dbd643b	0.09247633
60	0x3e4a89fc	0.197792
61	0x3dddfa35	0.10838739
62	0xbf2d9214	-0.6780102
63	0x3eef0daa	0.46690112
64	0x3f165dce	0.58736885
65	0xbed0481f	-0.40680024
66	0xbc271e6c	-0.010200124
67	0x3f02d712	0.5110942
68	0xbe314e9f	-0.17315148
69	0xbefa9205	-0.4893953
70	0xbedaf805	-0.4276735
71	0x3e697c73	0.2280138
72	0x3f14ffd1	0.58202845
73	0xbcf82daf	-0.030295221
74	0xbeb491ea	-0.35267574
75	0x3e1dfd1e	0.15428588
76	0xbe432de6	-0.19060478
77	0x3ea65faf	0.32494876
78	0xbe9e1c4d	-0.30880967
79	0xbee30bc5	-0.44344917
80	0x3f246193	0.64211386
81	0xbe08df08	-0.1336633
82	0x3f156964	0.5836394
83	0x3d7fb97b	0.062432747
84	0x3c3ff8b2	0.011717008
85	0xbf225232	-0.6340667
86	0x3e80b4f7	0.25138065
87	0xbeeee754	-0.46660864
88	0x3d7a8cef	0.06116956
89	0xbd911974	-0.07084933
90	0xbe8d18dc	-0.2755803
91	0x3e44d5c8	0.19222176
92	0x3e8e90c3	0.2784482
93	0x3d4a441b	0.049381357
94	0x3ef3c217	0.47609016
95	0xbe8d2367	-0.27566072
96	0xbd67237a	-0.056430317
97	0x3e5d0579	0.21584119
98	0xbd846860	-0.064652205
99	0x3ee614ae	0.44937652
100	0xbe99e586	-0.30057925
101	0xbe3c8aff	-0.18412398
102	0xbcfc381e	-0.030788478
103	0xbe0a8302	-0.13526538
104	0x3dddd576	0.1083173
105	0xbed07fc5	-0.4072248
106	0x3e0afb1d	0.13572355
107	0xbd8c8435	-0.06861154
108	0xbef55481	-0.47916034
109	0x3f097cf5	0.53706294
110	0x3f2a65fd	0.6656187
111	0x3f11e601	0.56991583
112	0x3d3bed2c	0.04588048
113	0x3ea79e25	0.32737842
114	0x3ed27f7b	0.41112885
115	0xbef96a77	-0.4871404
116	0xbd3cd5ad	-0.046102215
117	0xbd677781	-0.056510452
118	0x3e3a1e32	0.18175581
119	0x3e5c8d04	0.21538168
120	0xbe6ffb7e	-0.2343578
121	0x3f093123	0.535906
122	0x3f2d3019	0.67651516
123	0x3f0f65bf	0.5601463
124	0x3e4e94ed	0.20173998
125	0x3ec48963	0.38386068
126	0x3f289ddf	0.6586589
127	0xbc7b70aa	-0.015346685
128	0xbca9c0af	-0.020721762
129	0xbeb06d28	-0.3445828
130	0x3f2768db	0.6539437
131	0x3eafc1a7	0.34327433
132	0x3e09aa4c	0.1344387
133	0xbeebd297	-0.46059105
134	0xbeb0e2b7	-0.3454797
135	0x3f3112dc	0.691694
136	0x3f2079c3	0.62685794
137	0x3f27cebc	0.65549827
138	0x3e31eb93	0.1737502
139	0x3ef2eb03	0.47444925
140	0xbefdd61c	-0.49577415
141	0x3e4848f7	0.19559084
142	0x3f0b3030	0.54370403
143	0xbebd870f	-0.37017104
144	0x3e9f985b	0.31170925
145	0x3eda1d1f	0.42600343
146	0x3ed39f47	0.41332456
147	0xbe261309	-0.16218199
148	0x3eecda88	0.46260476
149	0x3eb6d1a0	0.35706806
150	0xbed75011	-0.42053273
151	0xbdf50d49	-0.119654246
152	0x3e870ffc	0.26379383
153	0xbe39bdbc	-0.18138784
154	0xbd3f3de3	-0.04668988
155	0x3e8c3652	0.27385193
156	0x3ef06ed7	0.46959564
157	0x3f330cce	0.69941413
158	0xbed49608	-0.41520715
159	0x3e79fe9b	0.2441353

lstm.weight_hh_l0 f4 [8, 2]
0	0xbf151a21	-0.58242995
1	0x3f22e9a2	0.63637745
2	0x3db4eca1	0.08834196
3	0x3f217eb9	0.6308399
4	0xbef45adf	-0.4772558
5	0x3ea80c55	0.3282191
6	0xbea578de	-0.32318777
7	0x3e7c8915	0.24661668
8	0x3ef1b627	0.47209284
9	0x3edde5ec	0.4333948
10	0xbef317c3	-0.47479066
11	0xbdb492ec	-0.088170856
12	0x3e9f4685	0.3110849
13	0x3f01ad50	0.5065508
14	0x3d88c84b	0.06678828
15	0xbe134326	-0.14381084

lstm.bias_ih_l0 f4 [8]
0	0xbdf755b0	-0.120768905
1	0xbef10b69	-0.47079018
2	0xbf2fe560	-0.68709373
3	0x3ea68e69	0.32530525
4	0xbeb1c85d	-0.34723178
5	0xbe557e8e	-0.20849058
6	0x3e8d5f31	0.27611688
7	0x3dbe8357	0.09302395

lstm.bias_hh_l0 f4 [8]
0	0x3e97ee9d	0.29674235
1	0xbeced672	-0.40397984
2	0x3f048ba9	0.51775604
3	0x3eb1a75d	0.34698
4	0x3e445596	0.19173273
5	0xbec73155	-0.38904825
6	0x3f14b1c4	0.5808375
7	0x3f09efe6	0.5388168
