seq.model (torch_old, 1358 bytes, 4 tensors)

lstm.weight_ih_l0 f4 [8, 20]
000000 fe 08 a0 be 78 4b 27 bf dd 57 1b 3f 2f 62 e4 be
       -0.3125686 -0.6534953 0.60680944 -0.44606158
000010 38 ff af bd ed d1 da be c0 8d 6d bd e8 15 b3 be
       -0.08593601 -0.42738286 -0.05799651 -0.3497765
000020 0b 1c 97 be a0 11 d9 bc 88 a3 03 be 88 a8 64 be
       -0.29513583 -0.026497662 -0.12855351 -0.22329915
000030 c4 64 82 3e 8e 33 84 be d0 f1 c7 bd 40 56 06 3e
       0.25467503 -0.25820583 -0.09762919 0.1311884
000040 5e 9a c9 3e 40 97 0e bc 60 7a 6d bd d0 2e 29 bd
       0.39375585 -0.008703053 -0.057978034 -0.04130441
000050 0a 71 fa 3e 2a 9e 7a be 00 84 86 3b 3a c6 94 3e
       0.48914367 -0.24474397 0.004105091 0.29057485
000060 c6 48 d6 3e 78 95 4a 3e 6b 02 02 3f bb 5b a3 be
       0.41852397 0.1978358 0.5078494 -0.31905922
000070 be 13 99 3e b6 df 1b bf 20 54 c1 bc d8 95 8f 3d
       0.29897875 -0.6088823 -0.023599684 0.07011002
000080 c4 9e 10 3e b3 1f 18 3f 06 1a 5c be 04 65 05 3e
       0.14123064 0.5942337 -0.21494302 0.13026816
000090 70 78 77 be 40 52 ce bc ea 98 f9 3e da e1 9f 3e
       -0.24167037 -0.025185704 0.48749477 0.31227
0000a0 2d 22 19 3f 09 da 1a 3f 50 b6 e7 bd fc 31 4b be
       0.59817773 0.60488945 -0.1131407 -0.19843286
0000b0 50 ab 3e 3d 42 c5 bc 3e e7 13 23 3f fb 7e e3 be
       0.046550095 0.36869246 0.63702244 -0.44432816
0000c0 da 64 98 3e f7 b9 05 3f 95 c9 08 3f 52 00 e5 3e
       0.29764444 0.52236885 0.5343259 0.44726807
0000d0 6f 2c 30 3f 53 5f 1b bf b0 3f 23 3e e0 68 0f bf
       0.688178 -0.6069233 0.15942264 -0.560194
0000e0 a0 9e 66 bd d8 b5 ee bd 58 28 c2 bd 46 53 1e bf
       -0.05630362 -0.11655778 -0.09480351 -0.61845815
0000f0 45 cf 10 3f 3d 18 db be 22 76 19 bf 42 9d 7a be
       0.5656627 -0.4279193 -0.5994588 -0.24474052
000100 63 d4 e5 be 4e 0d b5 3e 0f 39 05 3f d7 5e ad be
       -0.448886 0.35361713 0.5204019 -0.3386142
000110 b5 14 2c bf 73 ca e0 be 80 67 a0 bd 8e 78 cd 3e
       -0.67219096 -0.43904456 -0.07832241 0.40131038
000120 98 ee f3 3d 98 95 cf be 4c e6 80 be 63 e4 23 3f
       0.119107425 -0.40543818 -0.25175703 0.64020365
000130 e3 b1 11 bf 00 91 e3 3b c0 ed cf bd f0 75 a7 be
       -0.5691206 0.0069447756 -0.10152769 -0.32707167
000140 47 65 00 3f dc 5d 22 bf fa 9a ed 3e 9a 7e a1 3e
       0.50154537 -0.6342447 0.464073 0.31541902
000150 5c bc 03 be e8 65 ec bd 70 fb 7e 3d 51 68 cf be
       -0.12864822 -0.115428746 0.06225151 -0.40509275
000160 0f 85 df be 2a 6e ba 3e 3d 99 01 3f 73 9b 1d 3f
       -0.43656203 0.36412174 0.5062445 0.6156532
000170 5e e1 07 bf aa 1e ca 3e be 0f 0c bf c0 d1 47 bc
       -0.5307826 0.3947652 -0.5471152 -0.012196004
000180 d8 d1 17 bf 21 36 2e 3f f0 7c 07 be 8c d2 62 3e
       -0.5930457 0.68051344 -0.13231254 0.2215063
000190 40 53 39 bd 44 d4 52 3e 08 89 2f bf 57 f7 14 3f
       -0.04524541 0.20588785 -0.6856847 0.5818991
0001a0 8c 23 03 bf 03 9e 31 3f 66 be f3 3e e1 42 15 3f
       -0.51226115 0.6938173 0.476062 0.58305174
0001b0 4b 9c 1b 3f d0 14 40 3d c9 08 0c 3f e2 28 f8 be
       0.6078536 0.04689485 0.54700905 -0.4846869
0001c0 d4 e4 48 3e e8 1c 13 be 26 c5 c3 3e f9 2a 07 bf
       0.19618541 -0.14366496 0.3823635 -0.52799946
0001d0 00 28 34 be ac dc 05 bf 05 03 23 3f ec ea 3c be
       -0.17593384 -0.52289844 0.6367648 -0.1844899
0001e0 af 67 02 3f 72 ab 8e 3e 5c 6f 6d be 06 c2 0f bf
       0.5093946 0.27865177 -0.23187011 -0.5615543
0001f0 6c 2b 14 3e 86 0b c6 be 45 f1 06 3f 9a f1 54 be
       0.14469689 -0.38680667 0.527119 -0.20795289
000200 f9 ca 0d bf 50 47 ba 3d 7b 27 dc be 01 89 86 be
       -0.55387837 0.09095633 -0.4299887 -0.262764
000210 80 ca 90 bb 15 dc 24 3f 7c d1 e9 be b3 57 23 3f
       -0.004418671 0.6439832 -0.45667636 0.63805693
000220 a7 07 de be 98 1b a7 be 27 3b a0 be 98 48 4e be
       -0.43365213 -0.3263824 -0.3129513 -0.2014488
000230 80 e4 a1 bd 2a 77 f9 3e 80 63 7d 3d 00 9b a4 3c
       -0.07904911 0.48723727 0.06186247 0.020093441
000240 52 45 dc 3e 11 41 0a 3f 0a 88 f9 be f8 99 2a bf
       0.43021637 0.54005533 -0.48736602 -0.6664119
000250 70 f6 09 be 5b db 24 3f 00 ed 18 bc 63 4d 0c 3f
       -0.13472915 0.6439721 -0.009333849 0.5480558
000260 73 26 30 3f 4e 6e aa 3e 85 77 9a be 60 e9 90 be
       0.6880867 0.3328728 -0.3016931 -0.2830305
000270 fc be 43 be a4 fb 74 be fa ea 60 be 8f 55 06 bf
       -0.19115824 -0.23924118 -0.21964636 -0.524743

lstm.weight_hh_l0 f4 [8, 2]
000000 68 f8 3c 3e 33 54 ab be 10 ea e2 3d 3c 29 0f be
       0.18454134 -0.33462676 0.110798 -0.13980573
000010 54 2c d6 be c0 b3 98 3d ed 69 2e 3f 60 98 81 bd
       -0.41830695 0.074561596 0.6813038 -0.06327891
000020 50 c3 ed 3d 93 25 0e 3f 83 ce 30 bf 36 45 2a bf
       0.116095185 0.55526084 -0.6906511 -0.6651186
000030 75 49 a5 be 69 33 bd be aa fc cb be 4d de 14 3f
       -0.32282606 -0.36953285 -0.39841205 0.58151704

lstm.bias_ih_l0 f4 [8]
000000 b2 36 a8 3e 56 90 c1 3e 8a 1c ab 3e 24 81 d8 be
       0.3285423 0.37805432 0.3342021 -0.42286026
000010 80 0c 71 bc 66 8f 21 bf 5e 68 9c 3e 89 9d 17 3f
       -0.014712453 -0.63109434 0.30548376 0.59224755

lstm.bias_hh_l0 f4 [8]
000000 ff 02 bb be 2a 2c 97 be 1d fe 32 3f b8 e1 1d be
       -0.36525723 -0.29525882 0.69918996 -0.15418136
000010 35 4e 06 3f 92 31 eb 3e 35 5a 05 3f 12 84 d8 3e
       0.52463084 0.45936257 0.5209077 0.42288262
