seq.model (torch_old, 1358 bytes, 4 tensors)

lstm.weight_ih_l0 f4 [8, 20]
0.25020367 0.43600944 0.91106176 0.6364191 -0.08884747 0.4397237 0.30771294 0.08802389
0.7148197 0.19158982 0.7068634 0.57615876 0.6568583 0.5925051 0.07006936 0.74258685
-0.576534 0.29279807 0.30362323 -0.4302369 -0.15832885 0.54725754 -0.6948034 -0.375035
-0.4457708 -0.28578383 -0.14852485 -0.53903174 -0.24869034 -0.47112507 -0.35811734 -0.76154345
0.36234248 -0.5785954 0.002232907 0.24100994 -0.47644946 -0.55555826 0.023759319 -0.21675876
0.96018434 -0.17945544 -0.1713846 0.76888967 -0.17491841 0.6423009 0.19741987 0.8030099
0.63722163 0.7316175 0.12234864 0.868711 -0.1266308 0.51735985 -0.17380036 0.8131741
0.8799302 0.96218365 -0.10213438 -0.033546142 -0.68985844 0.2072469 -0.72951436 -0.7444467
-0.708256 -0.1893034 0.44968623 0.3014977 -0.23097385 -0.78974533 0.27367282 -0.54753494
0.13478982 -0.435563 -0.16471183 -0.5453187 -0.5906868 -0.78707314 -0.22745149 0.50225306
0.4669959 -0.28510693 0.53116554 0.4670861 -0.06262146 -0.20467623 -0.3418381 0.16343395
0.4990139 0.5287261 0.2763982 0.6636053 0.030758876 0.69556487 0.053034708 0.7601175
-0.17253758 -0.35918558 0.4922206 0.06052633 -0.7361746 -0.72570276 -0.08378307 -0.4959077
-0.23474501 0.14034332 -0.9081805 -0.5723635 -0.41005948 0.0060544615 0.19445002 -0.19453661
-0.6573003 0.009516791 0.077708386 -0.8791329 0.2587534 -0.6009393 0.15713952 0.07240523
0.23794208 0.25229985 0.68766403 0.51575226 0.6586121 0.3352279 0.88633806 0.56384873
0.7069261 0.4313664 0.51351064 0.6768933 -0.15316376 0.67857087 0.6776862 0.5877442
0.8488031 0.14039522 0.45715007 0.4784915 -0.4756369 -0.18673381 -0.53809416 0.49852943
-0.521722 -0.6126894 0.22379653 -0.18625908 0.18961304 -0.40032873 -0.30556723 0.47296175
0.21764956 -0.5738464 0.18233569 -0.4612719 -0.5846528 -0.6734368 -0.62481993 -0.85071206
00000000: b21a 803e a13c df3e 583b 693f 5dec 223f
00000010: aaf5 b5bd 7723 e13e 8d8c 9d3e df45 b43d
00000020: 6dfe 363f 1f30 443e 00f5 343f 247f 133f
00000030: de27 283f 6aae 173f 8680 8f3d 2c1a 3e3f
00000040: bb97 13bf a1e9 953e 8174 9b3e 0348 dcbe
00000050: f520 22be 1219 0c3f a3de 31bf 9604 c0be
00000060: 123c e4be 4252 92be e616 18be fcfd 09bf
00000070: aea8 7ebe 4e37 f1be 285b b7be 83f4 42bf
00000080: f484 b93e d41e 14bf f755 123b 4fcb 763e
00000090: 2ff1 f3be 1139 0ebf e7a2 c23c 02f6 5dbe
000000a0: a4ce 753f 2bc3 37be 727f 2fbe f4d5 443f
000000b0: d01d 33be d56d 243f 6f28 4a3e 0f92 4d3f
000000c0: f520 233f 494b 3b3f ec91 fa3d d863 5e3f
000000d0: 81ab 01be b271 043f b9f8 31be 2e2c 503f
000000e0: 1b43 613f ab51 763f d42b d1bd ae67 09bd
000000f0: 909a 30bf 8838 543e 74c1 3abf 0f94 3ebf
00000100: 4450 35bf c0d8 41be 463d e63e e85d 9a3e
00000110: 6984 6cbe c02c 4abf d81e 8c3e 402b 0cbf
00000120: 5806 0a3e 1d02 dfbe 38aa 28be 029a 0bbf
00000130: 4037 17bf a07d 49bf 0be9 68be a893 003f
00000140: 161a ef3e 89f9 91be 77fa 073f e925 ef3e
00000150: ae3f 80bd a596 51be 6705 afbe 3b5b 273e
00000160: c07e ff3e 985a 073f 1184 8d3e 09e2 293f
00000170: 0afa fb3c 8a10 323f ec3a 593d 0f97 423f
00000180: b1ad 30be 2ce7 b7be 5704 fc3e 75ea 773d
00000190: f075 3cbf a8c7 39bf 7596 abbd 9de7 fdbe
000001a0: ff60 70be 29b6 0f3e 847e 68bf 6a86 12bf
000001b0: 51f3 d1be 8164 c63b e81d 473e 9b34 47be
000001c0: d544 28bf 51ec 1b3c 9325 9f3d db0e 61bf
000001d0: 537b 843e 28d7 19bf 2fe9 203e 3149 943d
000001e0: 17a7 733e 722d 813e c00a 303f 5708 043f
000001f0: cd9a 283f fea2 ab3e 0de7 623f 6458 103f
00000200: 1cf9 343f 0fdc dc3e 6f75 033f e148 2d3f
00000210: f6d6 1cbe d2b6 2d3f d87c 2d3f 6776 163f
00000220: 294b 593f c4c3 0f3e 930f ea3e d6fc f43e
00000230: ae86 f3be 2637 3fbe 8ac0 09bf 403f ff3e
00000240: 938f 05bf 36d9 1cbf eb2a 653e b3ba 3ebe
00000250: ec29 423e e3f7 ccbe 4f73 9cbe 0b28 f23e
00000260: 87df 5e3e 99e7 12bf 35b6 3a3e d52b ecbe
00000270: ceab 15bf 5b66 2cbf 33f4 1fbf 44c8 59bf

lstm.weight_hh_l0 f4 [8, 2]
0.6967829 0.3712036 0.19804627 0.42561078 0.5240284 -0.2141923 0.27701482 0.19432856
0.20486009 -0.08420864 0.06852213 0.13145114 0.24730372 -0.19888991 -0.24096394 -0.15464824
00000000: 5d60 323f 660e be3e a4cc 4a3e a8e9 d93e
00000010: ba26 063f 3a55 5bbe e3d4 8d3e 11fe 463e
00000020: d8c6 513e 9475 acbd 5555 8c3d 219b 063e
00000030: 303d 7d3e cca9 4bbe 40bf 76be 1c5c 1ebe

lstm.bias_ih_l0 f4 [8]
0.09067627 -0.04208584 0.14515218 0.41531587 0.87065315 -0.1427461 0.23637825 0.13835852
00000000: 7bb4 b93d 3462 2cbd c6a2 143e 48a4 d43e
00000010: 20e3 5e3f 092c 12be 240d 723e dbad 0d3e

lstm.bias_hh_l0 f4 [8]
0.4249134 0.102576345 0.3417525 0.5518887 -0.2922394 0.14908752 -0.15706897 -0.7910508
00000000: 408e d93e 8c13 d23d 2ffa ae3e 9448 0d3f
00000010: 67a0 95be 66aa 183e b0d6 20be 4e82 4abf
