seq.model (torch_old, 1358 bytes, 4 tensors)

lstm.weight_ih_l0 f4 [8, 20]
0	0x3fb64abe	1.424156
1	0xbf6df0e0	-0.9294567
2	0x3fec6067	1.846692
3	0x3fb7ede1	1.436947
4	0x3fd477eb	1.6599096
5	0xbe6b4b88	-0.22978032
6	0x3f143095	0.5788663
7	0x3fb44c50	1.4085789
8	0x3f184565	0.5948089
9	0x3f6fcd1f	0.93672365
10	0x3f25d1f3	0.6477348
11	0xbf4a3400	-0.78985596
12	0x408a14cb	4.315038
13	0x3f66f02f	0.9021024
14	0x3f9e84c1	1.2384263
15	0x3da65559	0.081217475
16	0x3f55e758	0.8355613
17	0x3f897bbf	1.0740889
18	0xbd9a74be	-0.07541798
19	0x3e957e52	0.29197937
20	0x3f806325	1.0030257
21	0x3f06d8c8	0.5267453
22	0x3f4ca536	0.7993959
23	0x3fb2c6f8	1.396697
24	0x3f32c088	0.6982503
25	0x3ed9a74b	0.42510447
26	0x3eda6b96	0.42660207
27	0x3ed4ba46	0.41548365
28	0x3f5c2edd	0.8600901
29	0x3f5c37a4	0.860224
30	0x3e087dab	0.13329189
31	0x3f741448	0.95343447
32	0x40535935	3.3023198
33	0x3ee1cdda	0.44102365
34	0x3e38a6e6	0.18032417
35	0x3f65baa8	0.8973794
36	0x3fb2a1ff	1.3955687
37	0x3f93d7de	1.1550252
38	0x3f11c71b	0.56944436
39	0x3f113e74	0.5673592
40	0x3f001d86	0.5004505
41	0x3f3fc184	0.74904656
42	0x3f082ba6	0.531916
43	0x3e24e637	0.16103445
44	0x3fa46a49	1.2844936
45	0x3e9aa240	0.30201912
46	0x3ec6fb50	0.3886361
47	0x3f176499	0.59137875
48	0x3e17514f	0.1477711
49	0x3e8fb442	0.28067213
50	0x3f07136b	0.52764004
51	0x3ec375b6	0.38175744
52	0xc096ecc9	-4.7164044
53	0x3f38401d	0.7197283
54	0x3f4a8fca	0.79125655
55	0x3efa3a0d	0.48872414
56	0x3f04f810	0.51941013
57	0x3f5aec78	0.8551707
58	0x3ecf42c7	0.40480635
59	0x3f7c84be	0.9864005
60	0x3fa6748e	1.300432
61	0x3ee7b17a	0.4525259
62	0x3d83d768	0.0643757
63	0x3fc1a8d4	1.5129647
64	0x3ee9fa79	0.45698908
65	0x3f722afe	0.9459685
66	0x3e9129ef	0.28352305
67	0x3efa5d05	0.48899093
68	0x3fabda88	1.3426065
69	0x3f7538fc	0.95790076
70	0x3fb1c5e6	1.3888519
71	0x3f8ecb20	1.1155739
72	0xc083fedb	-4.1248603
73	0x3fa3b6d0	1.2790165
74	0x3f736f9c	0.9509218
75	0x3fb6ccbb	1.4281229
76	0x3fd0b80a	1.6306164
77	0x3f4b35e0	0.7937908
78	0x3f496900	0.7867584
79	0x3fafa052	1.3720801
80	0x3fb02448	1.3761072
81	0x3ee4b2a6	0.44667548
82	0x3fdd5bc0	1.7293625
83	0x3fb2c716	1.3967006
84	0x3fcd159b	1.6022218
85	0x3f04e169	0.5190645
86	0x3f5714c8	0.84016085
87	0x3fa08905	1.2541815
88	0x3f80ba02	1.0056765
89	0x3f9b3b48	1.2127466
90	0x3f928511	1.1446859
91	0x3edb25a1	0.42802146
92	0x3ffd4b04	1.9788518
93	0x3fde85af	1.7384547
94	0x3f993b07	1.1971139
95	0x3f81f544	1.0152974
96	0x3fcb5e22	1.5888102
97	0x3f6bf2b4	0.9216721
98	0x3f7a5837	0.97790855
99	0x3f6f377c	0.9344404
100	0xbf5fb502	-0.8738557
101	0xbfc68384	-1.5508885
102	0xbf77dd4d	-0.96822053
103	0xbfd353d0	-1.6509953
104	0xbf95ddf2	-1.1708357
105	0xbf7cc822	-0.9874288
106	0xbfc19198	-1.5122557
107	0xbf601e53	-0.8754627
108	0xbfb3fd8b	-1.406175
109	0xbf9df0cb	-1.2339109
110	0xbefe3bc5	-0.49654976
111	0xbf99fa8a	-1.2029583
112	0xbfc5d21e	-1.5454748
113	0xbf266372	-0.6499549
114	0xbf29363d	-0.66098386
115	0xbf336879	-0.7008129
116	0xbf8b8ba5	-1.0901991
117	0xbf4b4909	-0.7940832
118	0xbf9f8547	-1.2462548
119	0xbfc3b01e	-1.5288122
120	0x3ff97e18	1.9491606
121	0x3f0bf53f	0.5467109
122	0x3f4ddf13	0.8041851
123	0x3f8260d3	1.0185798
124	0x3ff7bbf6	1.9354236
125	0x3ee0a9e6	0.43879622
126	0x3f234712	0.6378032
127	0x3fb093f7	1.3795155
128	0x3e528282	0.20557597
129	0x3fee7b0c	1.8631301
130	0x3f9e4471	1.2364637
131	0x3ea7eece	0.3279938
132	0x405b8c84	3.4304514
133	0x3fffae25	1.997502
134	0x3fe7c002	1.8105471
135	0x3f849dc9	1.0360652
136	0x3fbc7007	1.4721688
137	0x3fd7b6f2	1.6852705
138	0x3fc02eb6	1.5014255
139	0x3fd23207	1.6421517
140	0x4003ebbc	2.061263
141	0x3fe0fd7b	1.7577356
142	0x3fe3fc1a	1.781131
143	0x3fe976da	1.8239396
144	0x40093ebe	2.1444545
145	0x3fb74bcc	1.4320006
146	0x4006c8c5	2.106004
147	0x400d4e4a	2.2079034
148	0x3fa41494	1.281878
149	0x3f9a7a1d	1.2068516
150	0x3fbdb5a5	1.4821059
151	0x3fc3a654	1.5285134
152	0x40127f55	2.2890217
153	0x3f9492c2	1.1607287
154	0x3feb3d73	1.8378128
155	0x3f80f333	1.0074219
156	0x3fa3f39f	1.2808722
157	0x3f64c9b2	0.8937026
158	0x3fc0f4f3	1.5074753
159	0x3fbdee63	1.4838375

lstm.weight_hh_l0 f4 [8, 2]
0	0x3f87e23f	1.061592
1	0xbfb0f997	-1.3826169
2	0x3f8019fa	1.0007927
3	0xbf802e16	-1.0014064
4	0x3f869cc6	1.0516593
5	0xbfd5ceb8	-1.670371
6	0x3f5956ab	0.8489787
7	0xbfbb1a44	-1.4617391
8	0x3e228a5d	0.15873094
9	0xbf9bb5ae	-1.2164819
10	0xbe0bb3ac	-0.13642758
11	0x3f90e547	1.131997
12	0x40269ae8	2.6032047
13	0xc00e7a26	-2.2262053
14	0x3fe64897	1.7990903
15	0xbfe0fc9e	-1.7577093

lstm.bias_ih_l0 f4 [8]
0	0x3f0675a6	0.5252327
1	0x3f3afa4d	0.7303818
2	0x3f698e62	0.91232884
3	0x3f095de8	0.53658915
4	0x3f3ecb96	0.745294
5	0xbedfca48	-0.43709016
6	0x3fe22fd0	1.7670841
7	0x3fb74e56	1.4320781

lstm.bias_hh_l0 f4 [8]
0	0x3e1460fa	0.14490119
1	0x3ed35a04	0.41279614
2	0x3f047683	0.51743335
3	0x3f4146e9	0.75498825
4	0x3f96a351	1.176859
5	0xbfcfb127	-1.6225938
6	0x3f7e5560	0.9934902
7	0x3fdf8f91	1.7465688
