seq2-aap.model (torch_old, 1397 bytes, 8 tensors)

lstm.weight_ih_l0 f4 [8, 4]
-0.09464585 0.42695057 -0.09765262 -0.19942199 -0.5600795 0.47725403 -0.57373065 -0.5576967
0.35501793 0.44612643 -0.019665292 -0.18679705 -0.18699092 0.643384 -0.29113573 -0.21192665
-0.1688593 0.55629367 -0.22487426 -0.56382984 -0.26466224 -0.0916248 -0.22599748 0.6441919
-0.47526065 0.5075796 -0.07748911 -0.14902589 -0.3101246 0.6397081 0.35056633 0.42563576
00000000: afd5 c1bd 4499 da3e 19fe c7bd 4735 4cbe
00000010: 5f61 0fbf a45a f43e 03e0 12bf 36c5 0ebf
00000020: e9c4 b53e af6a e43e 1b19 a1bc ba47 3fbe
00000030: 8c7a 3fbe d0b4 243f be0f 95be 4d03 59be
00000040: 74e9 2cbe 4369 0e3f 7045 66be 2757 10bf
00000050: cf81 87be c8a5 bbbd e26b 67be c3e9 243f
00000060: 5d55 f3be bdf0 013f 9cb2 9ebd 3e9a 18be
00000070: a7c8 9ebe e9c3 233f 6e7d b33e eeec d93e

lstm.weight_hh_l0 f4 [8, 2]
-0.28126383 0.011379437 -0.20671707 -0.7002841 0.44363463 0.4154869 0.10468595 -0.009040675
-0.034200072 -0.3142817 -0.25413758 0.5030257 0.27450183 0.27223942 0.44401783 0.054178774
00000000: d001 90be d170 3a3c a4ad 53be d245 33bf
00000010: 1424 e33e b3ba d43e 9665 d63d 571f 14bc
00000020: 6015 0cbd 88e9 a0be 521e 82be 4bc6 003f
00000030: 818b 8c3e f762 8b3e 4e56 e33e 90ea 5d3d

lstm.bias_ih_l0 f4 [8]
-0.7154438 0.03255662 -0.21456653 -0.68043184 0.013289392 -0.45859277 0.48492634 0.62488943
00000000: 5327 37bf 175a 053d 54b7 5bbe c830 2ebf
00000010: c0bb 593c accc eabe 4448 f83e c1f8 1f3f

lstm.bias_hh_l0 f4 [8]
0.45678 -0.15255205 -0.11298485 -0.309286 -0.41949692 -0.61647755 -0.09429506 -0.08237207
00000000: 11df e93e 9b36 1cbe 9a64 e7bd bc5a 9ebe
00000010: 4dc8 d6be 79d1 1dbf c51d c1bd b0b2 a8bd

lstm2.weight_ih_l0 f4 [8, 2]
0.37029064 -0.4474939 -0.05392614 -0.59968466 -0.009202866 -0.18190068 -0.035977665 -0.4080811
0.64220124 0.12647982 -0.41118217 -0.6790652 0.4749282 -0.57479644 -0.19819145 -0.6847099
00000000: bc96 bd3e ec1d e5be a8e1 5cbd ef84 19bf
00000010: 9ec7 16bc 2c44 3abe 515d 13bd 02f0 d0be
00000020: 4d67 243f ed83 013e 7886 d2be 38d7 2dbf
00000030: ca29 f33e dc25 13bf b3f2 4abe 2649 2fbf

lstm2.weight_hh_l0 f4 [8, 2]
-0.028828492 0.20126078 -0.0020768559 -0.19597471 0.018812137 -0.043820012 0.88271505 -0.30421957
0.65749186 -0.75517255 -0.13227014 0.41482213 0.9573574 -0.4892799 -0.021619761 -0.60698235
00000000: bb29 ecbc 4e17 4e3e dc1b 08bb 98ad 48be
00000010: e91b 9a3c 9d7c 33bd 9df9 613f abc2 9bbe
00000020: 6351 283f fd52 41bf d371 07be 9163 d43e
00000030: 6015 753f e582 fabe ed1b b1bc 3263 1bbf

lstm2.bias_ih_l0 f4 [8]
0.8379011 -0.25600344 0.47554922 -0.21723822 0.4512724 -0.80279005 0.13262849 0.29317388
00000000: b080 563f e212 83be 307b f33e b273 5ebe
00000010: 2d0d e73e a683 4dbf c3cf 073e e31a 963e

lstm2.bias_hh_l0 f4 [8]
-0.08117141 0.60100275 -0.3174073 0.8292808 -0.24297442 0.45158666 0.7220732 0.8033117
00000000: 323d a6bd 51db 193f 3683 a2be bf4b 543f
00000010: 49ce 78be 5e36 e73e cad9 383f d6a5 4d3f
